OCR/thetasscio.npy (npy, 32208 bytes, 1 tensors)

array f8 [10, 401]
0	0xc0159d3ac5b038b7	-5.403544510727605
1	0x0000000000000000	0.0
2	0x0000000000000000	0.0
3	0xbe30e9a18e018b8f	-3.937776521606925e-09
4	0xbedbe4be74671f01	-6.6503360529113825e-06
5	0x3f138769381b5c8e	7.44970293696681e-05
6	0x3f471fa8c21303b0	0.0007056783689663917
7	0x3f2d8538cc1e2640	0.00022522276236385148
8	0x3f0c59efe5339ab8	5.407584526455816e-05
9	0xbf24379c446997d4	-0.0001542452102569191
10	0xbf518b19bba55735	-0.0010707618044611515
11	0xbf2d82b6d4e18ff4	-0.00022514802771234045
12	0x3f319d347eb3d1cd	0.00026876956572088607
13	0x3f3e4479688340a8	0.00046184505528136044
14	0x3f667889c66d6b3a	0.002743023960119298
15	0x3f639004ee4fb9b5	0.0023880096728056918
16	0x3eebbf4fc8e8859e	1.3230949005796016e-05
17	0x3ee20a5514680fca	8.60231433553312e-06
18	0x3e9576b70d54dee4	3.198345102819698e-07
19	0xbe8bd2978add4ab8	-2.0729470889354456e-07
20	0x0000000000000000	0.0
21	0xbe2af96e95df2972	-3.1402268970673758e-09
22	0xbee26eb8e2699044	-8.789305025298903e-06
23	0xbeee8c5e54c8ee8a	-1.456657141673332e-05
24	0x3f521166dd5ed5cc	0.0011027817285883422
25	0x3f6070b398ad3b0f	0.0020068652860695322
26	0xbf76783f5c2a5d94	-0.005485770702441956
27	0x3f6291a38e31ac8f	0.0022667116586965806
28	0x3f73c1f7070256f6	0.004823651266766529
29	0x3f66792356047636	0.002743309989581967
30	0x3f884e3bf961186f	0.011867970035506851
31	0x3f80f01cddb44e82	0.00827047874057674
32	0x3f78114852d72bfd	0.005875856889768547
33	0x3f6140631ce2f414	0.0021058975026719915
34	0xbf94cd9da50650d5	-0.020315612027460645
35	0xbf98becf88d741a2	-0.024165384986021395
36	0xbf660c1c99757696	-0.0026913221915226366
37	0x3f6d692672686747	0.003590178577053491
38	0x3f67cfc7ba6b2ee1	0.0029066945020071876
39	0xbf20626bdc483c96	-0.0001250034967061649
40	0x3eae355f67d35154	9.002830691170866e-07
41	0x3e5def41eeb3189a	2.7878768554789554e-08
42	0x3f0cb6ca82c11c8d	5.4767661226190046e-05
43	0xbf086d564184c115	-4.659099085058315e-05
44	0xbf741d6f58f7909c	-0.004910883857039885
45	0xbf938d90c9e3edd9	-0.019094717333229958
46	0xbfa1cd387ddcd6ee	-0.0347688344613014
47	0xbfa937ace9b352aa	-0.049252894904986036
48	0xbfb462270c4716f0	-0.07962268876789458
49	0xbfbfe4a35c0b1afe	-0.12458249089386794
50	0xbfc3a97c8e142894	-0.1536098188156002
51	0xbfccc0c22c578ab2	-0.22463252225050706
52	0xbfd15777264639bd	-0.27096346605039995
53	0xbfcb9b3c2f13c5c0	-0.21567489908879445
54	0xbfd5f8d062c5613c	-0.34331140180212905
55	0xbfcd9e7d3ff73340	-0.23139920829125948
56	0x3f9602de8aee59b9	0.021495320539168115
57	0xbf8f3b30e78e88d0	-0.015249616686393713
58	0xbfa685b2b5ed9532	-0.04398878546525466
59	0x3f77567de38fccbf	0.005697719338957074
60	0x3f540ad4c528bd96	0.0012232854684376174
61	0x3e7bc0467a6b3ce1	1.0338081200409414e-07
62	0x3f3f3c6272f6dfa5	0.0004766216615865688
63	0x3f60a41289917e63	0.0020313608224993714
64	0xbfb0a90e9f670b46	-0.0650796069303797
65	0xbfc5c2f33a6adc4c	-0.17001190521634368
66	0xbfc6e8b97e9e3c65	-0.17897719080471855
67	0xbfd11c23ef81d50e	-0.26734255208369084
68	0xbfcd71925dbe5f32	-0.23002843453718352
69	0xbfc25a2bb92bc422	-0.143376794257649
70	0x3fb186c04d6d42aa	0.0684623898535032
71	0x3fd1b9841dd4b83b	0.27694800294091565
72	0x3fa5819db9e36aa4	0.04200451749939774
73	0xbf6ab65e0e9b899e	-0.0032607876827210466
74	0xbfc9dd2847e961cb	-0.20206168662367782
75	0xbfc5fbffc63bebb8	-0.1717529027881406
76	0x3fd0726bc477cadb	0.2569837015754907
77	0x3fc0a971c1ba0f1c	0.13017103156391208
78	0x3f993cc5d635d628	0.024645892333373137
79	0xbfa1063e2d4479e2	-0.03325075438100435
80	0xbf84e370aa8785a3	-0.01019943256773354
81	0xbee9801e441cfe46	-1.2159567748803252e-05
82	0x3f4656daea20bbf8	0.0006817406576881116
83	0x3f77505706c4cfd7	0.005691852519067417
84	0xbfbbda6b7b96df8c	-0.10880157248800354
85	0xbfd2a8065fd6005a	-0.29150542601565166
86	0xbfc552a489d0de47	-0.16658455590526186
87	0xbfcafd8543086b5d	-0.21086183331575628
88	0xbfc6ecfeeaf58743	-0.17910753700840062
89	0x3fd5dc54f70595d7	0.3415729915926397
90	0x3fe3f832503bcb0e	0.6240474288045748
91	0x3fee3b18f056372a	0.9447140401914329
92	0x3fddc1cc643c608c	0.4649535158982949
93	0x3fe1b654865aac40	0.5535071014504709
94	0x3fdb125dd913e6ae	0.4229960079097549
95	0xbfc4bb57e09d304c	-0.16196726291161878
96	0x3fdad526b3b5c3c0	0.41925971555525265
97	0x3fe25558b9a2299b	0.5729182840016621
98	0x3fb219ab02bf6f87	0.07070416276059009
99	0xbfbbff941714e59a	-0.10936856807247466
100	0xbfa09b53c2e805e6	-0.032435052435186226
101	0xbf11d60328e91957	-6.803888593607164e-05
102	0x3f60d55b6c85e4b1	0.002054861605014745
103	0xbf86cc2968319c41	-0.011131595127336637
104	0xbfc5828bab9df465	-0.16804643516289555
105	0xbfd7f139c2881068	-0.37409824368683653
106	0xbfd3dd80621a54d6	-0.31039437847478035
107	0xbfe5fd62ed644050	-0.6871809612803279
108	0xbfd2a8a1ab999676	-0.29154245145614455
109	0x3fd0518b6d5dca1b	0.25497708969410987
110	0x3fbfbd2b32a62856	0.12398023592518945
111	0x3fe30e92c05b9db8	0.5955289608945611
112	0x3ff10d09c38dac78	1.0656831396870796
113	0x3fdaaab61f19305f	0.41666939770653316
114	0x3fee6ef3731a6f49	0.9510438202009733
115	0x3fc4bf177f479b79	0.1620816585047711
116	0xbfca502f677b7671	-0.20557205727429875
117	0xbfe5cfd3ac37e518	-0.6816194881095354
118	0xbfd4c56ef6efa5aa	-0.3245503818021357
119	0xbfc6a797c3cee4fe	-0.1769895273298871
120	0xbf9f28a8248a7403	-0.030428530912661966
121	0x3f618b83e90e62dd	0.0021417213797117877
122	0xbf915891678b5cf1	-0.01693942255482467
123	0xbfc83b913176cd82	-0.1893178454898639
124	0xbfdb56ebd4aaf397	-0.4271802498658927
125	0xbfe28335e8fcd05b	-0.5785169172800225
126	0xbfd4c43472a2fbda	-0.3244753951548184
127	0xbfe33fe730e41c02	-0.6015506701377265
128	0x3fc167e5694a6282	0.13598315850392245
129	0xbfb703e0866ad35d	-0.08990290910408079
130	0xbf692d9fcb94dadf	-0.0030735131264479766
131	0x3fba9e4f4c8040f2	0.10397811525058723
132	0x3fe2313e03e20df0	0.5685110164490066
133	0x3fcefbaa39facbcf	0.2420552046874875
134	0x3fc954b37266d509	0.19789736829776697
135	0x3fc0582ee60c8405	0.12769113762718134
136	0x3fb051daf3947d37	0.06374901243952001
137	0x3fb3c7ea1ebc7d09	0.07726920366666347
138	0xbfdef165573e23c5	-0.48348363418386625
139	0xbfd6e013453930b9	-0.35742646942231776
140	0xbf996bedf78acf48	-0.024825781091478732
141	0x3f66df5191fbb0ee	0.002792033497703731
142	0xbf97c9f26d822484	-0.023231304105625586
143	0xbfddbcbe96ab0c7f	-0.46464504922568745
144	0xbfe1412fa842cd41	-0.5392072950693675
145	0xbfb2f9d23e1d168c	-0.07412446991392069
146	0x3fd1b94c60d32640	0.276934713893386
147	0xbfc037c65c8c4ac4	-0.12670211333223425
148	0xbfae836dc22f140b	-0.05959647174271517
149	0x3faf8d6eb32c7a1f	0.06162591874293732
150	0x3fe0a9c808451dc4	0.5207252656481889
151	0x3feb5e66c3c26a44	0.8552736113954968
152	0x3fc1eedca3687d19	0.14010198573030477
153	0x3fe7649c41508c14	0.7310315395046723
154	0x3fba35277a772ec0	0.10237356891519322
155	0x3ff2286b56d265e3	1.134867991588515
156	0x3fe2fd9ec17cc7b2	0.5934594897319043
157	0x3ff02a02ea3fedd3	1.010256686246852
158	0xbfbdc9bd689e4b1f	-0.11635955623777904
159	0xbfe8ed21d6285acb	-0.7789467985884014
160	0xbfbc1ae019b3bf94	-0.10978508594030095
161	0x3f512f179f65c4ba	0.0010488253297718368
162	0xbf8d2a4b4715936f	-0.014240825754947754
163	0xbfe5b089f76e692d	-0.6778001625673703
164	0xbfd139ebeb8c00a3	-0.26916025164247
165	0xbfbca1c09f1f07b6	-0.11184314617915345
166	0xbfc246c3b5a15b67	-0.14278456085841215
167	0xbfd6fbbc3f2bd7d5	-0.35911470574444354
168	0xbfb346247d0433c5	-0.07528904010923927
169	0x3fcad342b4723d0d	0.20957216082431565
170	0xbfc3c964d673907c	-0.15458355399380597
171	0x3fe127e4715ca6d6	0.536119672212602
172	0x3fd37c2ca746c732	0.3044540055808397
173	0x3fe162ec323dd38b	0.5433255177764392
174	0x3fdd376a9a8a9e21	0.4565073498910995
175	0x3fee726917e80d94	0.9514661280558578
176	0x3fd30d5739f1886c	0.29768925341171015
177	0x3ff0242a9e50aace	1.0088297065910186
178	0x3fae1054f716e86d	0.05871835247258237
179	0xbfe3e8bb2c0f3c00	-0.6221595631158152
180	0xbfc483547210e951	-0.16025786943084566
181	0x3f345a9d6cb90ace	0.0003105768525736686
182	0xbfad26d7d9a9639e	-0.05693697483065495
183	0xbfd65a84b0cc35be	-0.34927479997062594
184	0x3fd668e04fb079a1	0.35015113622821487
185	0x3fbff4e4d1cde8f1	0.1248305332391373
186	0x3fd63aed8c7673f7	0.347346675081837
187	0x3fd83f892f3ef129	0.3788779221902297
188	0x3fcb1a7581afc189	0.2117449649081318
189	0xbfd96853530de6fd	-0.3969925223424154
190	0xbfe6697a01616a77	-0.7003755595172397
191	0x3f6496e2d2007a8c	0.0025133543094988994
192	0xbff622b1e90903c6	-1.3834704497278252
193	0xbff94c55595be3a6	-1.5811360827048957
194	0xbfecc5e73eb7a9f5	-0.8991581177663749
195	0xbfa2bea0901a6bcf	-0.03661062010834081
196	0xbfd91cfda10d68b8	-0.3923944542672291
197	0x3ff163bfa3d0c589	1.0868526839297792
198	0xbfb1176fa2d8e2be	-0.06676385617982825
199	0xbfd86343543f114b	-0.3810585329740845
200	0xbfc19cd1cd665745	-0.13759825257573702
201	0xbf6ea0065b32fb8b	-0.0037384151597445506
202	0xbfb0b6480539f15e	-0.06528139236065075
203	0x3f74bac8d896e81b	0.005060944132702995
204	0x3fdcfea87ec98cd7	0.45304310208866866
205	0xbfbb479b36942127	-0.10656137545095544
206	0x3fd1574285526f93	0.27095091838577295
207	0x3fe07ccef1a40005	0.5152353972953284
208	0xbfb510fa57d4c541	-0.08229031223597351
209	0xbfe5b88f2d1baff4	-0.6787792092341065
210	0xbff5c57d8912410b	-1.3607154230449534
211	0xc00048932dedfe4b	-2.035436972451668
212	0xc002dc6b78d14c09	-2.3576268614647273
213	0xbff265ffd1666c0d	-1.1499021701517933
214	0xbfe8bd4258f1d25d	-0.7731029259871992
215	0xbff1d8d687c8a71c	-1.1154389671377833
216	0x3fcd90b06e1c92be	0.2309780633596769
217	0x3fdf9280d2953e4f	0.49331684651130997
218	0xbfc84a9bae109ca1	-0.1897768592764111
219	0xbfe32d10e19947f5	-0.5992512136674565
220	0xbfac02b09331958f	-0.05470802113340333
221	0xbf805747479da1ab	-0.00797897040656966
222	0xbfc95f352e2f5e8f	-0.1982180095208048
223	0xbfdd6e0015cce320	-0.4598388874906494
224	0x3fce1a9baf47d35c	0.2351870160925057
225	0x3fde54bd03eb7f35	0.47392201788715066
226	0x3fd52412d4592eb5	0.3303267549242535
227	0xbfc0747c0b77e2f5	-0.12855482635475082
228	0xbfd7332fe3f4b971	-0.3624992109424943
229	0xbfeb26f1c53d66e1	-0.8485039570179788
230	0xbff92e98cd33688b	-1.5738761916786952
231	0xbff80d1602dff4c3	-1.5031948196695317
232	0xbfe2d76cb76d4e0a	-0.5887969572599456
233	0xbfe56a9f9d18e07b	-0.6692655628494458
234	0xbfd1e991f261f38c	-0.27988098783662774
235	0xbfdecb17d03e5084	-0.48114581428786374
236	0x3fc1a7515ecbe8ed	0.1379186356423995
237	0xbfd692b6307ac4ae	-0.35270457014400847
238	0xbfc948a2d2855a8d	-0.19752917556134655
239	0xbfd83aa23941ebd4	-0.37857871619752115
240	0x3f8b7fce26525964	0.01342736296127773
241	0x3f9aa3b158d39e65	0.026015063330218875
242	0xbfd7be5a41e9a514	-0.37099319874558145
243	0xbfd23e48dc94b474	-0.285051551257147
244	0x3f834ee77d4a8c4e	0.009427841673931205
245	0x3fc2af05685b5e28	0.1459662208132937
246	0x3fe81263471eb235	0.7522446049748114
247	0x3fb767577732c294	0.09142061863054557
248	0x3fe40d70a451db22	0.6266406258936039
249	0x3fccf2790ad57ba9	0.22614968327522192
250	0xbfce1dcdc914e5cb	-0.23528454130591422
251	0xbfa796ca0d1b3ebc	-0.046072305774598615
252	0xbfde05996b3b6f8f	-0.4690917536915941
253	0xbfc20f5534760105	-0.14109292089052175
254	0xbfc85e49f3472acd	-0.1903774679070324
255	0xbfd74cff5503ea1c	-0.36407454778933057
