OCR/parameters/thetas10kha.npy (npy, 32128 bytes, 1 tensors)

array f8 [10, 400]
0.0 0.0 -1.6579980726757607e-07 -9.963054085818038e-06 0.00012850494917081659 0.0012215174344129417 0.00038974485575742876 -0.0005389139638259258
-0.0013127573089766287 -0.001958271188168009 -0.00037273272532761743 0.0004556096612817076 0.0008275833218079089 0.005903905944105599 0.005276626452377142 4.233078666206969e-05
1.1740362080104744e-05 3.3444548799056646e-07 -3.7027204899023574e-07 0.0 -1.456290432549206e-07 -9.533954462611852e-06 -1.478370103377457e-05 0.0014329071460276478
0.001725343446072163 -0.011745971759127286 2.5493032691631e-05 0.001753911478936695 -0.003279844997106793 0.01178632854969727 0.011829693832248238 0.011610420075442114
0.006082601080877091 -0.04513193356591221 -0.056080113923570124 -0.007997493336171772 0.0069618784064002254 0.005597308134687595 -0.00022406018883230355 5.727545233836934e-06
1.2792797736941551e-06 4.3611090885238706e-05 4.7768170347895384e-05 -0.005786247357450642 -0.02298369165072348 -0.06411072078150547 -0.10870728599520126 -0.18081822907416786
-0.26382901765810907 -0.2851727041589842 -0.3921033563479261 -0.4904180319679779 -0.40023923120094546 -0.6768139790102342 -0.4263435282080084 0.04462962474186383
-0.058238175765205 -0.07309165507432316 0.009650765794531453 0.001970437469339532 4.9002733016772375e-06 0.0006352642864692008 0.0018971948823637587 -0.08461564407875194
-0.19636502903657685 -0.28582299207708456 -0.5185904990937975 -0.4897877997889275 -0.32611934961423383 0.018433562822914952 0.4074980462017011 -0.11501417485289281
-0.14110285325023902 -0.42076732700488256 -0.21319601653489578 0.6043130403184233 0.23559229768813814 -0.028708412616036665 -0.05514880667680791 -0.017080937007334405
-1.3039524245768583e-05 0.0016337572264678148 -0.0011212919749457124 -0.18766903980308627 -0.4224481262111612 -0.2884317404699463 -0.4157008058562459 -0.3017154848532153
0.5674926398936391 1.0295121453875766 1.5495832549828692 0.4821930419811208 0.5841673854734123 0.6385631699648935 -0.35005197472167154 0.6694624025235146
0.9612294070326622 0.05533620582122608 -0.18326662773229374 -0.05294457568847831 -0.00015034878653903404 0.003771803826267104 -0.03207438350547794 -0.322512741657872
-0.6604283217939306 -0.4170632441624549 -1.0189207171088188 -0.385696102799981 0.3840424422297286 0.239771469237401 0.9310935144836808 1.5978590979611562
0.5164495717211619 1.3568571928366617 0.20803478432630365 -0.4590301385704636 -1.1748684544734782 -0.6114345487180556 -0.32026309181764945 -0.04378436635282592
0.0029424611025558245 -0.023377208466998884 -0.3125722983088366 -0.8083630687529847 -0.9404985231215454 -0.27503881903170146 -1.0754745731596818 0.070133255306054
-0.22051639658096012 0.0014686572801232425 0.09796059353316763 0.7851648229523769 0.30331120879042095 0.06027920862490211 0.09551454436747095 0.03350695844617827
0.16429758091823024 -0.9683060215633763 -0.681108298481751 -0.032900785447263554 0.004034715317912083 -0.031238921265247296 -0.8519047102548574 -1.0453564072013597
0.11206836003306747 0.7574626415598992 -0.4347154562932234 0.022079990699221185 0.32748961576353974 0.6538704280944183 1.0458225718574419 0.014994027904805658
1.0529232115254723 -0.00666896703748954 1.9459533588689328 0.7601350628670641 1.6792191532478078 -0.2432499108843985 -1.297688842840847 -0.1943304540218614
0.0028735528727621383 -0.0376731012498718 -1.2515232616962726 -0.39953945416092007 -0.04902349465862677 -0.22085877373781285 -0.6574935012499429 -0.001161925380930554
0.3523597996181186 -0.4460767744604309 1.0824923960479325 1.0047134615327404 1.1139608563805075 0.7373505972065799 1.6080016021831058 0.25461081505649313
1.352720184458378 0.14349488472194538 -0.9490868670666509 -0.3077498293309114 0.0016110860735669805 -0.127527081787867 -0.7681977219463021 0.4725269621066898
0.31247533914590725 0.6221610616340741 0.561311912374921 0.242011172165793 -0.69975141449046 -1.111575040431607 0.4047208504740096 -2.078873994252607
-2.4688719600249103 -1.6937517585762825 0.005597824125751729 -0.7582436582803519 1.489438427513513 -0.20104186407853006 -0.5581797940536297 -0.2800073211377949
-0.007212864507317732 -0.1519386662516546 -0.04351361277619147 0.49409718778718775 -0.15919914733898638 0.5651219858879751 0.6374861891847082 -0.12894127063141791
-0.9408842813241154 -2.0997112999278267 -3.3572751908270497 -3.8803625431788444 -1.5989839838883446 -1.174166107329766 -1.6036618408111563 0.27427729616843416
0.6329298262974874 -0.45867711599433886 -1.0630752491798785 -0.13480730563043475 -0.014037126932787454 -0.37352662642653 -0.7929910243000069 0.18105389957813686
0.5637728636939112 0.38316950191632076 -0.2644642577927781 -0.5442728646798498 -0.8918377864846329 -2.220826937217805 -2.183321893387227 -0.4529032872227312
-0.7312874535740329 -0.3691499968682692 -0.8747749149065962 0.0023153572065027677 -0.7494242981624253 -0.6557344094091886 -0.8118919836332528 -0.010115248037159782
0.04373749631398194 -0.639157638369727 -0.543770317343449 -0.03944570296324056 -0.12404923151066685 1.12379238739011 0.08197883439451363 1.0561835757433813
0.6190937002595573 -0.08169437128437904 0.11512997503901833 -0.6571816682177191 -0.14649681881395524 -0.4206991022686906 -0.7478597476149772 -1.771999153481677
00000000: 0000 0000 0000 0000 0000 0000 0000 0000
00000010: c23a 1d87 d640 86be 74b9 18ba dfe4 e4be
00000020: 881e ae1b e9d7 203f c1c2 aa5b 6a03 543f
00000030: 956b c568 d58a 393f 9279 ccec bca8 41bf
00000040: 29bc 6a6d 1a82 55bf a657 b7d6 ca0a 60bf
00000050: f5e3 8cdd 6a6d 38bf 246b 4e98 dcdb 3d3f
00000060: 1601 a4a6 451e 4b3f 6f70 2daf b12e 783f
00000070: 001b bda0 f19c 753f 6bcc 2ec1 8a31 063f
00000080: 114f e213 0f9f e83e 86c3 c5cf ba71 963e
00000090: b2eb 76b1 39d9 98be 0000 0000 0000 0000
000000a0: 97f5 779c c68b 83be 3d5f 4ab9 80fe e3be
000000b0: 5aba 0566 f000 efbe 8b2a 2555 0c7a 573f
000000c0: e242 376b 9d44 5c3f 0283 85a4 450e 88bf
000000d0: c092 f2dd 3bbb fa3e 8a90 4b1c 70bc 5c3f
000000e0: 47e6 f35f 55de 6abf 6f71 493d 6e23 883f
000000f0: 1cb2 0ca1 2a3a 883f 0480 2234 34c7 873f
00000100: 71c1 78cb 11ea 783f 0778 5765 881b a7bf
00000110: acef 835e 88b6 acbf 9c74 a162 fd60 80bf
00000120: c2fe 2f01 0f84 7c3f e658 25f6 33ed 763f
00000130: 35b7 e25d 365e 2dbf 366c 53a5 e705 d83e
00000140: 27c9 81fc 7676 b53e aefd 39ac 61dd 063f
00000150: dc79 e1d5 550b 093f 3a48 abf2 51b3 77bf
00000160: 29c1 ec6f 0989 97bf 9f5d 1469 8f69 b0bf
00000170: e5b1 2f9e 3dd4 bbbf bb74 323e 0d25 c7bf
00000180: e0f3 a41a 93e2 d0bf 38c8 8403 4540 d2bf
00000190: a3a2 0aad 3818 d9bf 15f4 2a50 0263 dfbf
000001a0: 3f64 2502 859d d9bf 0363 2aca 75a8 e5bf
000001b0: 05f0 a05d 3649 dbbf e0ea 65b5 b1d9 a63f
000001c0: 569c 94e8 64d1 adbf 6a9c 277c 22b6 b2bf
000001d0: e43d c0db c7c3 833f c204 ab8f 4e24 603f
000001e0: eec9 5dde a08d d43e d083 d7aa fbd0 443f
000001f0: 8b3a 547e 6915 5f3f dc57 0cf0 5ea9 b5bf
00000200: e124 e540 7d22 c9bf d99e da84 ec4a d2bf
00000210: 44f9 331a 4b98 e0bf f4af 84ed ae58 dfbf
00000220: 30e6 4bb1 23df d4bf 9a89 e475 3fe0 923f
00000230: 69b1 67af 7214 da3f 52d1 91a7 9171 bdbf
00000240: 1281 0a86 a80f c2bf 1386 2d15 daed dabf
00000250: 36d2 53cf 014a cbbf bdd8 164d 8856 e33f
00000260: 4f49 e16e e327 ce3f 4b4b 39f5 bc65 9dbf
00000270: f43d 2ee2 763c acbf 897e 5347 aa7d 91bf
00000280: f4a9 ec90 8a58 ebbe 39b9 dd76 79c4 5a3f
00000290: 276c 2517 0a5f 52bf 7186 3602 8a05 c8bf
000002a0: b756 95dd 6309 dbbf 0798 1c67 aa75 d2bf
000002b0: f0b2 848d d79a dabf c40b 0977 4e4f d3bf
000002c0: 580b 2253 e628 e23f 1a64 34ba e178 f03f
000002d0: 5a4a a9cf 17cb f83f 16bb 6a34 40dc de3f
000002e0: b1f0 ffcc 7fb1 e23f e2bc 6d07 1c6f e43f
000002f0: 691b d565 4067 d6bf c3ae 976a 3c6c e53f
00000300: 8914 652c 64c2 ee3f 5be3 92f4 0655 ac3f
00000310: ec79 47e6 4775 c7bf fe4b 2a2a 8d1b abbf
00000320: 9919 0b3e deb4 23bf 4876 95c2 0be6 6e3f
00000330: 1b0a 64b8 0d6c a0bf d6af 7d7b 0ca4 d4bf
00000340: 88a0 6e93 3a22 e5bf 68a6 8208 2ab1 dabf
00000350: 1b30 53cf 7f4d f0bf dc1d eeb4 3eaf d8bf
00000360: 14c5 69c0 2694 d83f 9cba 71dd d4b0 ce3f
00000370: 1d34 47a0 84cb ed3f 64bf 95b3 d490 f93f
00000380: 4a6b 9240 c186 e03f 9736 49e3 afb5 f53f
00000390: 5552 8e41 e2a0 ca3f 9c76 42f2 bf60 ddbf
000003a0: eb0c 51dd 42cc f2bf 256f cc2f df90 e3bf
000003b0: e43f 5ec4 307f d4bf 0379 1f8b e76a a6bf
000003c0: 2e3d 91c6 c91a 683f a5a2 59e7 31f0 97bf
000003d0: 00cf b73d 2f01 d4bf 19d3 f239 1cde e9bf
000003e0: 6bc9 d75b 9018 eebf a0c8 376b 3c9a d1bf
000003f0: 0268 76d3 2435 f1bf 0aca e6c5 40f4 b13f
00000400: c403 c69b e139 ccbf 01a8 2dbf fe0f 583f
00000410: 668e 8509 f213 b93f 549a 91fa 1120 e93f
00000420: 2af7 906a 7369 d33f 316e 589b eadc ae3f
00000430: cec2 5924 a473 b83f e5f5 6df5 d227 a13f
00000440: fd87 6d00 b407 c53f 6a4e e4e8 5cfc eebf
00000450: 2d6d 60a1 a3cb e5bf 9975 042b 5fd8 a0bf
00000460: e4f6 6ca5 b486 703f ff45 c984 18fd 9fbf
00000470: 844b bbaa cd42 ebbf 9c80 d9a3 c7b9 f0bf
00000480: 1425 4215 83b0 bc3f 1321 2e4b 223d e83f
00000490: 5016 f6c6 60d2 dbbf 23eb cb17 239c 963f
000004a0: 02fa 5e01 97f5 d43f e295 0fad 81ec e43f
000004b0: bdbd f872 b0bb f03f ca40 e45b 30b5 8e3f
000004c0: 1738 6b02 c6d8 f03f 0398 2f35 eb50 7bbf
000004d0: 7b22 3efd 9f22 ff3f 7dd2 71c4 0653 e83f
000004e0: 2342 20e7 14de fa3f 9c6f 0026 d022 cfbf
000004f0: 192b 4660 55c3 f4bf 5203 5200 d2df c8bf
00000500: f831 94f3 468a 673f b33b 9d83 e349 a3bf
00000510: 29b3 7241 3d06 f4bf 4c4d 45ee 0d92 d9bf
00000520: e1bf 9684 9b19 a9bf 7589 1ead 1945 ccbf
00000530: eb6e a6cf 2f0a e5bf a93c bce0 7709 53bf
00000540: 563c f21d 108d d63f 9603 7499 858c dcbf
00000550: e01c f38b e351 f13f 2b25 326c 4e13 f03f
00000560: dcda 729e c8d2 f13f cc06 9647 6098 e73f
00000570: 34ac 54e3 5fba f93f e308 f828 8b4b d03f
00000580: 8434 8eeb bda4 f53f ec13 8356 0a5e c23f
00000590: e1a8 e36b eb5e eebf a9da 1457 2cb2 d3bf
000005a0: 3208 cf7f 6265 5a3f e50c d1b2 ce52 c0bf
000005b0: ccdf 9363 1395 e8bf 637e 2eba e13d de3f
000005c0: 250b 9c90 98ff d33f 0104 9250 bee8 e33f
000005d0: 152d 5066 44f6 e13f 92fe dbda 38fa ce3f
000005e0: da1e 1214 5d64 e6bf 1142 dbe8 02c9 f1bf
000005f0: 2fe4 3248 f2e6 d93f 088f 4eb0 88a1 00c0
00000600: 1a8c 32f1 3fc0 03c0 bc0a aa71 9b19 fbbf
00000610: 0f25 c878 beed 763f 15d5 5634 8843 e8bf
00000620: 2338 7963 bdd4 f73f 8f0d ac63 bdbb c9bf
00000630: 86f2 17df 9bdc e1bf 805a bbd3 a3eb d1bf
00000640: 04e6 b592 3c8b 7dbf 4f3c 46e9 b972 c3bf
00000650: ffed 9b8f 6a47 a6bf d3db a5cf 499f df3f
00000660: be9e af3d a360 c4bf 2f76 f4b3 7a15 e23f
00000670: 5366 c66f 4966 e43f 60ba 3bc6 2581 c0bf
00000680: f670 335a b91b eebf 72da 2170 35cc 00c0
00000690: d831 6218 b3db 0ac0 b99c 5c84 fb0a 0fc0
000006a0: 3c0d da3a 7095 f9bf f8d8 7066 62c9 f2bf
000006b0: 7f08 8251 99a8 f9bf ed09 455c c28d d13f
000006c0: 9a8a 130d f640 e43f 59a2 2743 f75a ddbf
000006d0: 52a2 4631 5b02 f1bf 74e8 78a4 5d41 c1bf
000006e0: f756 d948 7fbf 8cbf 5cfa 2b39 dce7 d7bf
000006f0: 767b 6cb6 2e60 e9bf c32c c030 c62c c73f
00000700: f000 7e63 6d0a e23f 8388 e35f d985 d83f
00000710: c993 8b7e fbec d0bf 58ce 3ced ae6a e1bf
00000720: a13b c965 ef89 ecbf 1969 cbe9 40c4 01c0
00000730: 59e9 0578 7177 01c0 74d7 b711 5efc dcbf
00000740: 3b6b 22f2 b466 e7bf b488 f74e 27a0 d7bf
00000750: 0852 5cf6 27fe ebbf ea26 60ef a7f7 623f
00000760: 8cee 6daa 48fb e7bf 64c7 68ba c6fb e4bf
00000770: 44dc b2e5 04fb e9bf 7890 159c 4db7 84bf
00000780: f010 8ed8 c264 a63f 9a2b 39b8 fa73 e4bf
00000790: 2bd2 3002 9166 e1bf 2fc3 6328 3a32 a4bf
000007a0: baa7 6ec0 b0c1 bfbf 3b59 f5b9 0dfb f13f
000007b0: 734a b09c 90fc b43f 1a3e c6bf 20e6 f03f
000007c0: 18c8 7897 9dcf e33f 4606 ef1c ece9 b4bf
000007d0: 17f6 9475 2879 bd3f 91d3 90d9 a107 e5bf
000007e0: 9f11 e362 68c0 c2bf 65d6 6ced bbec dabf
000007f0: 5909 c090 77ee e7bf 53e5 cbc8 1b5a fcbf
