OCR/parameters/thetas.npy (npy, 32128 bytes, 1 tensors)

array f8 [10, 400]
0	0x0000000000000000	0.0
1	0x0000000000000000	0.0
2	0xbe84ba523d45d853	-1.544342739347258e-07
3	0xbe7f18c8cd7e6a9b	-1.1584465953036508e-07
4	0x3ef6959abd7a15c0	2.1538154980867965e-05
5	0x3f2269bc4a76f63e	0.0001404802653563342
6	0xbf110bfce09676c0	-6.502848568464958e-05
7	0xbf3f6737c8d4b234	-0.0004791747276893549
8	0xbf3bd9f877035f50	-0.0004249793628452363
9	0xbf33db6d771a8624	-0.00030299589625757046
10	0xbf01dccb9dbbb09e	-3.4069980498903046e-05
11	0x3f1403cc7dab8f76	7.635055173299356e-05
12	0x3f241d9a38c4c556	0.0001534701117491914
13	0x3f3b043dd98e2c66	0.00041224012380131623
14	0x3f3ecbe3fe1293fa	0.0004699164983981704
15	0x3f1165f645e2402e	6.636920577052292e-05
16	0x3ef08550e141b8da	1.575542962977618e-05
17	0x3e7578d0ef504300	7.998920266450379e-08
18	0xbe89225291acd31f	-1.872634321720563e-07
19	0x0000000000000000	0.0
20	0xbe7fb1b9f3d4e492	-1.1807025842172363e-07
21	0xbe91f13f2b326556	-2.673621494836265e-07
22	0x3ee088cf0e12f074	7.88422079477816e-06
23	0x3f20f99105586db6	0.00012950797342701847
24	0x3f018b9465cb6a0d	3.34648764003972e-05
25	0xbf64365588da4989	-0.0024673147771149856
26	0xbf640453bfd30380	-0.0024434695938854722
27	0xbf70bd6455b0b4ba	-0.004086868221787993
28	0xbf710963fcd5e816	-0.004159346176829023
29	0x3eeb71a154cdd153	1.30862560127973e-05
30	0x3f447406c3941007	0.0006241829898105963
31	0xbf3c34fc23e59fd4	-0.00043040424124862514
32	0xbf58171e460d987e	-0.001470355571848297
33	0xbf6fc51fb3e16ca7	-0.003878175658469002
34	0xbf71b6d6719e683d	-0.004324758216080635
35	0xbf3b982b609e7082	-0.000421057310285418
36	0x3f18911bb2b3e8fd	9.371501498725908e-05
37	0x3f24a6088fce736e	0.00015753607285953368
38	0x3edc532521cf6669	6.753155074223918e-06
39	0x3ec825e132592481	2.878662047210506e-06
40	0x3eb14e459e1eac29	1.0315030682754925e-06
41	0xbed35da52966498e	-4.6171668571952275e-06
42	0xbef06f0a89971bb8	-1.5672449625882718e-05
43	0xbf3d37610d9c23ab	-0.00044580573522573036
44	0xbf6401f45680274b	-0.0024423382019493115
45	0xbf887f2fcd5b52e0	-0.011961339430322793
46	0xbf9630e033ecb486	-0.021670821351268653
47	0xbfa15dfebaf36688	-0.03392025024522832
48	0xbfa31a41898c6088	-0.037309692421502894
49	0xbfa001b838740c25	-0.031263119593880874
50	0xbf9be3fbe0d76167	-0.027236877058244426
51	0xbf9b48df4d6258ef	-0.026645173166422727
52	0xbf9d2895589e3000	-0.028475125821884717
53	0xbfa7fe286851fa2a	-0.046860945448305394
54	0xbfa8c301721b9d55	-0.04836277501982048
55	0xbf944e2a09f682ec	-0.019829422815408046
56	0xbf77f1932a7dbe6e	-0.005845618121255931
57	0xbf5640fea649d5f0	-0.0013582693874502026
58	0x3f3e9e41e2fa7fdb	0.0004671965461771046
59	0x3f13dbe7b6e102cd	7.575608989985744e-05
60	0x3ed0faf062bf20c9	4.048402427466073e-06
61	0x3f13f537ddfd0c93	7.613328443505296e-05
62	0xbf3a870657bf326a	-0.00040477661945884666
63	0xbf82c8c23c9b9c90	-0.009171979403119118
64	0xbf940898346ac961	-0.019564035605705302
65	0xbfa52a40704dcc4b	-0.0413379799928398
66	0xbfb339a14e4ff1a2	-0.07509811555787008
67	0xbfb9c50270fbbe25	-0.10066237696059284
68	0xbfb74f567d017b2f	-0.09105434944056577
69	0xbfa58495de090f9c	-0.042027171472482666
70	0x3f9de756c86d6d86	0.029202800734635236
71	0x3fa6884bc05aed69	0.044008605223519855
72	0x3fa5615c6251555c	0.04175842952887862
73	0x3f650e13391bbcd1	0.002570188088490612
74	0xbfa2acc59f06cdd0	-0.03647439543001563
75	0x3f3f2ecb3c7acf4d	0.00047581159422381976
76	0x3f5d7af6dd7d5001	0.0017993365090278603
77	0xbf7d40522288ba98	-0.007141419257591729
78	0xbf70214cf7828805	-0.003938007976246998
79	0xbf4eab8f26a526d4	-0.0009359787921223391
80	0x3ecdb9fd647cf322	3.5436776534544728e-06
81	0x3f2fe41b5901b3cb	0.000243309343662372
82	0xbf5c60078be96f32	-0.0017318795868481282
83	0xbf96fbe3cd2178fe	-0.02244525851744416
84	0xbfac86dc5de5a971	-0.055716406309175855
85	0xbfb77472f45f4735	-0.09162062135808642
86	0xbfc0fb2960d20d4d	-0.13266484477581245
87	0xbfc036113b4acb13	-0.12665000338673646
88	0xbfa15cdb300e9af5	-0.033911561600055075
89	0x3fb3ce46a8d232aa	0.0773662721787313
90	0x3fc7daa685e07b9f	0.18636018311459865
91	0x3fcd33c6f81fa392	0.22814261546525622
92	0x3fcebbac9a1f74f9	0.2401023628762358
93	0x3fc3424026bb1573	0.1504593075862136
94	0x3f91ee35e5465fb3	0.01751026355631753
95	0x3f9484f4fd3136eb	0.020038440660122097
96	0x3fa016dc497dc702	0.031424411746128214
97	0xbf9c05862efbf963	-0.027364822976772795
98	0xbf91ee43fa11e4fc	-0.017510473383002698
99	0xbf703ac1085c4120	-0.003962282213038543
100	0xbf0e26c60ba9b131	-5.750934493140221e-05
101	0x3f389ad5dc7451db	0.0003754398462245936
102	0xbf7dd9a934d4f009	-0.0072876557945242915
103	0xbfab08bea37ef549	-0.052801091630935
104	0xbfbfd43c8f122eb1	-0.12433222287125535
105	0xbfc5fd01451ba6c1	-0.17178359865584095
106	0xbfc9a3fbf1c2696e	-0.20031689934405555
107	0xbfc0f18428992971	-0.13237049085939703
108	0x3f4a3e427ded61df	0.0008008789699074889
109	0x3fb54225c2498946	0.08304058068600736
110	0x3fcae0284e770061	0.20996574240962487
111	0x3fd5559003d2871f	0.3333473241165041
112	0x3fd6fd8cb4fd01fc	0.3592254416908245
113	0x3fd4d37652329b42	0.3254066279136404
114	0x3fc2a240ef102e53	0.1455765883732619
115	0x3fa3e95cdc72b3b9	0.03888979140297217
116	0xbf7a17523e0eab24	-0.0063698971361343705
117	0xbfb3b22644470319	-0.07693709532669536
118	0xbfa6bf3cc7457741	-0.04442777569305046
119	0xbf7d9b5e6a906a97	-0.007228249372043158
120	0xbec29fe2d5fcaf7f	-2.220219968670654e-06
121	0xbf53ca39152d58f0	-0.0012078816841572491
122	0xbf9cb335b8a039a8	-0.028027381318730754
123	0xbfbcda945c9d4c35	-0.11271025906653238
124	0xbfc84f543e63556f	-0.18992093130388407
125	0xbfc7eba86339cc91	-0.1868792042256229
126	0xbfca597e0b91064c	-0.20585609020968076
127	0xbfbe941b84806e59	-0.11944744095711125
128	0xbf944a1f0e38abb3	-0.019814000361445937
129	0x3fafaccc9a032319	0.06186522846252824
130	0x3fc8d7202fa2f295	0.19406511617662106
131	0x3fd2790fba8356ec	0.28863900388874586
132	0x3fd4c450e69e7beb	0.3244821788920819
133	0x3fd48ec7f276915e	0.32121466329615156
134	0x3fcee02c4e37649b	0.2412162191310799
135	0x3fc1f513b669d8d7	0.14029165656001538
136	0x3fa8f1cf1aaa82b2	0.04871985626710308
137	0xbfbe549768f0b442	-0.11847826301591716
138	0xbfb331e0949ba219	-0.07497981670497501
139	0xbf8519dc3cdb2619	-0.0103032308646958
140	0x3f24a4f122489f5e	0.00015750354317955578
141	0xbf61a305eaf77d42	-0.002152930792121006
142	0xbfadb544e4b0ff59	-0.05802359859126111
143	0xbfc4b433ba6405da	-0.16174933053120705
144	0xbfc6b3e85886a46e	-0.177365344262657
145	0xbfbf1652e59fcd8a	-0.12143438440380386
146	0xbfbf0c05e013e7e7	-0.12127720566414234
147	0xbfb4007d607e2ea1	-0.0781324730471007
148	0x3f8c7422aaf12352	0.013893385736211936
149	0x3fbc1d4205d12c83	0.10982144014376342
150	0x3fc519d964282e17	0.16485135450817331
151	0x3fb32a064b01265f	0.07485999423183774
152	0x3fba4d8ed210ee02	0.10274593952720326
153	0x3fc49af2408f4a3c	0.16097858574228663
154	0x3fd0379c9dd35083	0.2533942738784917
155	0x3fcb5bf39f236e31	0.2137436415713281
156	0x3fc4628c18f547e8	0.15925742357882133
157	0xbfbb096edff4fc2b	-0.10561268775653392
158	0xbfbb218b7ada080a	-0.10598060368832321
159	0xbf911393ddd84f38	-0.016676245131818507
160	0x3f2f5ea6a97a0781	0.00023933205078568653
161	0xbf63c9f05721124c	-0.0024156278750829038
162	0xbfb555ef493ea1c5	-0.0833425096340142
163	0xbfc36b2bab56687e	-0.15170808664408136
164	0xbfbe9af4ab7a3acb	-0.11955193697415749
165	0xbfb1d735e1f89886	-0.06969010130760198
166	0xbfb0d48d50e6e43c	-0.06574328637260946
167	0x3f8253de3d2d1902	0.008949028245876626
168	0x3f9da4b377783d06	0.028948597113466888
169	0xbfa47f9c2e9f0828	-0.04003608769518535
170	0xbfc24ac22a19795d	-0.142906446987534
171	0xbfd37a67dbce0e82	-0.3043460508854211
172	0xbfd0f1af1dfd44ec	-0.2647512238373355
173	0xbfc152509b595d72	-0.13532455048946762
174	0x3fa08e85f8f8938a	0.0323373667163543
175	0x3fbed9827d213767	0.12050643496442391
176	0x3fcda486a4b3d3c1	0.23158343355285463
177	0xbfb24d71e7e9f983	-0.07149421607934951
178	0xbfbe47a17d602e4b	-0.11828049956255275
179	0xbf9d79da24278cfd	-0.028785141426749473
180	0x3f3f3bd11523ca6f	0.00047658781581031475
181	0xbf856b01a1ad89bb	-0.010458004709737225
182	0xbfb7f965062a981a	-0.09364920998140783
183	0xbfa7dad26cb12cad	-0.046591354148938315
184	0xbf33ee96a5d5473c	-0.00030413797306493343
185	0xbf7314624f0c4ac2	-0.004658111590077398
186	0x3fa694c7d0e7ae38	0.044103855372523204
187	0x3fad0da14c546061	0.05674461418874511
188	0xbfbe0457c10ae329	-0.11725376570656167
189	0xbfd49cb0ee57b902	-0.3220636680188279
190	0xbfe0e1cc38832c8e	-0.5275632003553186
191	0xbfe664e6c1921f39	-0.6998170643500777
192	0xbfe416be3dced297	-0.6277762610612453
193	0xbfd9b2fffd5e1693	-0.4015502905170731
194	0xbfc5f37156570c57	-0.1714917823393047
195	0xbf82a4e91f733901	-0.009103604576378379
196	0x3fcadb99e7360169	0.20982669629666909
197	0xbfb7d44fc1710c31	-0.0930833670873177
198	0xbfc064bb49dca287	-0.12807408434425246
199	0xbfa40879a2547856	-0.039127160134953584
200	0x3f40d231b8d2ec38	0.0005133383544014885
201	0xbf9531d78248d98e	-0.020697943999232353
202	0xbfbcf1a4d1eec2cb	-0.11306219220456197
203	0x3f922648b2505574	0.01772416675892914
204	0x3fb2bc37b1e58f99	0.07318447201902102
205	0x3fb895d25361f55c	0.09603609595975143
206	0x3fb7b45371492d15	0.09259530559318237
207	0xbfb32be20d46f9b7	-0.0748883516707569
208	0xbfd883e0ea4fe697	-0.3830492294506284
209	0xbfe41b569b0a4228	-0.6283371952177434
210	0xbfe9259521932f67	-0.7858377128372752
211	0xbfeb14c32b7a3abe	-0.8462844704789274
212	0xbfe670fc857b42e4	-0.701292286592516
213	0xbfdaa96bae824e3c	-0.4165906147183909
214	0xbfcb56245de91ff4	-0.21356634698372512
215	0x3f7a05469f439561	0.006352687709499123
216	0x3fb245ec02de36ec	0.07137942380924372
217	0xbfbe95c7bc778ae7	-0.11947296477550716
218	0xbfbddc3bb4211568	-0.11664174220739698
219	0xbf9ebd11139bf8c8	-0.03001810724435286
220	0x3f57262538c0b680	0.0014129031651565482
221	0xbfa04003d056c57c	-0.03173839491081318
222	0xbfc24f795ca6a759	-0.1430503561398904
223	0x3f948936e38f7f72	0.02005468143386175
224	0x3fc7003cfab1ebf5	0.17969476929633257
225	0x3fc846a334f43ecf	0.1896556862416134
226	0x3fa51c876c604a39	0.04123328397703969
227	0xbfca8d121cefaa59	-0.20743013775730182
228	0xbfe0610fdc83f62a	-0.5118483836119527
229	0xbfe75a4dd7b9609c	-0.7297734464036867
230	0xbfe9a50ba07871d0	-0.8013971456708138
231	0xbfe6ef66884311a7	-0.7167236958853679
232	0xbfe0831457e5e58f	-0.5160009114035108
233	0xbfce4d91ec3435fe	-0.23674224885364475
234	0xbfb6fd7b8591420d	-0.08980533610270687
235	0x3f5d6c0152455bd0	0.0017957699684154511
236	0xbfb4ac55373b36ef	-0.08075459097309666
237	0xbfc0b5e4e9fb78dd	-0.13055097031514765
238	0xbfb4c6562be8988b	-0.08115137645708807
239	0xbf92ebb1f8ebe40c	-0.018477230852088453
240	0x3f6a85afd1c05ffa	0.003237574956084896
241	0xbfa568edd314fc84	-0.041816169754832294
242	0xbfc387f4d2f0ca86	-0.1525865583403922
243	0xbf776121506291fa	-0.005707864888027542
244	0x3fcaf4e0c71475b1	0.21059808464717159
245	0x3fcf0a7e62bed2bb	0.24250774213364487
246	0x3fb8bc26b23ce493	0.09662095881948778
247	0xbfa32658b8eb3e89	-0.037401936123953546
248	0xbfd2c711dbbc41fb	-0.2934002538541162
249	0xbfdf9e3c0eef4e96	-0.49403287371135585
250	0xbfe1193704b20718	-0.5343279926021038
251	0xbfdac0481b3fff0b	-0.41798594151622187
252	0xbfca4575c2e2eba3	-0.20524475112855808
253	0xbfb30e426e321591	-0.07443633261035233
254	0xbfb0461d0eaef695	-0.06356984718783061
255	0xbfbd2ede2b352986	-0.11399639658808355
