OCR/parameters/thetasnew.npy (npy, 32128 bytes, 1 tensors)

array f8 [10, 400]
00000000: 0000 0000 0000 0000 0000 0000 0000 0000
00000010: 2656 8265 b111 82be 5c67 ca54 5ef8 b03e
00000020: 31d9 c110 8f99 e03e 3e15 79cf 2762 e5be
00000030: df4b a18d 728c 1dbf 5711 30e1 0fe6 34bf
00000040: 0647 9eb0 7234 2dbf 129a 8eed 229d 24bf
00000050: d8a5 0230 93a3 f5be 4dd1 d866 d153 023f
00000060: d92c 1375 6341 123f e005 fb98 d842 243f
00000070: 0e79 ab95 2d81 293f 04ee c9b3 9b3e 093f
00000080: 81d1 06df 0601 eb3e 8f23 36c6 c0b5 6b3e
00000090: d093 f44d 8efd 82be 0000 0000 0000 0000
000000a0: 99de f825 1d51 74be 409a 6701 d32c 913e
000000b0: a7b1 6bfd 6d3b cf3e 8254 4196 0ba8 053f
000000c0: 2827 fdf5 8ebe 043f 03cd e8e3 9cfd 4abf
000000d0: 5434 1a17 514d 57bf 9900 5df0 b4ff 65bf
000000e0: b4bb 5ded 5846 64bf 7e9d 35f5 ca98 35bf
000000f0: b74e a025 d5cc 1d3f 8d4e d0f4 72eb 36bf
00000100: ca3d a623 a234 4ebf 3c9c 597c 00b2 5bbf
00000110: 0f52 af5c a8fc 5ebf 316f be9e 5dab 38bf
00000120: 2b6c 73a7 a831 00bf 323e 303b 87f4 113f
00000130: d884 475b 8d37 dd3e 0542 a65c b99d c13e
00000140: 023f 67e4 73fb a53e acdc baf6 73ff d3be
00000150: cb5a 5be6 b814 c13e 7f81 9ab0 5286 29bf
00000160: e175 d814 bcd3 52bf 21b8 19b6 df93 76bf
00000170: ec59 5b16 6abf 86bf 71ff ef00 a5a6 91bf
00000180: 3dee a553 3972 92bf 7a19 9e4b 6ed8 8cbf
00000190: b13f c763 a8b2 87bf df43 9b2a bf1a 86bf
000001a0: 41f7 f106 9fbc 88bf 1ec3 0a0a b818 93bf
000001b0: 17e5 629c fba6 94bf dad8 3e95 7c96 83bf
000001c0: 5771 f9e3 4678 66bf d0f8 2a17 1ce0 43bf
000001d0: b8cf 2af5 73f2 253f 5319 4bf2 f99c f33e
000001e0: 6953 8ba7 2d7e c63e e134 870f 7944 f43e
000001f0: fc11 a329 a83f 26bf 21d7 3cb7 2ead 6ebf
00000200: 6d33 6686 0afc 82bf d071 71fa cdd0 96bf
00000210: 97e3 8818 0253 a4bf ee21 8e38 c440 aabf
00000220: b908 4538 44bb a6bf a51c 774c 8a1c 93bf
00000230: 710f 9116 dc78 933f 3975 5641 829c a13f
00000240: 6b44 daf3 15d5 a53f 8492 14a0 2e5c 9a3f
00000250: 5f30 0dc0 7686 64bf 683d 76ca ad9c 493f
00000260: 51e4 2160 afb6 4bbf b6cf 8497 ec1e 71bf
00000270: e3f6 23cd 899f 5bbf e57c 781d 1b0e 39bf
00000280: 24cb 3952 a556 cb3e 1cc5 fa00 d92e 1d3f
00000290: 7150 bd4d 5443 4ebf 7f2e 9451 7f44 86bf
000002a0: 8984 5b64 0d17 9ebf 521c 6c85 ebce aabf
000002b0: 447f 6671 3f4f b3bf 72cd 37a2 3c0e b2bf
000002c0: 46d5 8e03 21a3 95bf e7f5 3c5f d0c1 a43f
000002d0: 3f97 8c3c bcc8 bb3f b2a3 aec0 8b34 c33f
000002e0: 3943 e64d 1b37 c63f 6621 7c7c 104d c13f
000002f0: 9cc9 2437 2d48 ae3f f6df 15de e40a 9b3f
00000300: 2725 490f 95f4 853f 2360 6ed9 da5e 90bf
00000310: c00c dcc6 9ecd 81bf 2cef 7b17 819f 5fbf
00000320: fd83 dee2 ba8a 08bf a19b 4a89 2648 163f
00000330: 39af 4e30 1843 6ebf 7fe2 f72f 8a71 9cbf
00000340: e3c5 d2c1 188f b1bf a62d 50c1 f62a b9bf
00000350: cb25 7b1f 663b bdbf af2f 3ec4 ce54 b3bf
00000360: 2dba 89b6 04bf 673f 171a dc6d ee46 b13f
00000370: d0fd 6afd ec72 c33f 1adb 5564 47f5 cc3f
00000380: 001e 0e4c b441 d03f d960 b275 f2f0 ce3f
00000390: 17f9 34bd 8d67 c33f abba 4d9c 935b b23f
000003a0: da76 257b 8810 853f edea 7261 ea4e a6bf
000003b0: e237 5cef 5f73 99bf 6608 3f31 2835 71bf
000003c0: 60b5 ef4a e08c 15bf 9aa5 e0cb 503a 45bf
000003d0: a36c 4050 fa6c 88bf 3fe0 1f5b e8f1 acbf
000003e0: bacf ba87 761c bbbf 134f bfea 5c19 bebf
000003f0: 29d1 fde6 4437 bfbf 26c6 16e0 e2f7 aebf
00000400: 5208 5dbf 1d70 903f d624 b70b d6c2 b23f
00000410: 08d8 d702 c044 c13f b561 9129 ba43 c53f
00000420: b714 baf4 f37c c73f e411 bd8c d6ec c83f
00000430: 9935 2f7b 8ee0 c63f 32cf eff0 96c4 c03f
00000440: fc16 4235 5e65 a63f 103b 5b4c 59b8 b1bf
00000450: 3d24 25db f5c7 a5bf 9628 42dc 4b45 78bf
00000460: 3acb 9f69 14f5 f23e a126 b86c 7f79 53bf
00000470: 84eb 4b3a 79d0 99bf 3804 4006 d4b7 b5bf
00000480: c646 e467 b014 bdbf d1ec e862 a508 b9bf
00000490: 4f77 019c 2f1f b3bf 1617 753d ae9b 97bf
000004a0: 09f1 7fa9 6254 9e3f 60ae e7cd 20bc aa3f
000004b0: 39db 59b3 df1d a03f cecc 21ef 31b0 a2bf
000004c0: 6e90 e35c 10cb a0bf 8a0c eaca 6c85 8f3f
000004d0: 0ed1 d048 02e3 b93f b37b 90df cd39 c23f
000004e0: 1f7f f55f 6402 b73f 7dcc 949c 0b64 b2bf
000004f0: af67 6998 c7c9 adbf 47e3 fe5d 99ac 81bf
00000500: 6cd5 d7b5 0313 1c3f 98bd 4855 d8c9 5bbf
00000510: f6ff 7a28 0061 a3bf a02c de62 6a43 b6bf
00000520: 4d3f 370a 35cb b6bf d42f cb88 37e7 aebf
00000530: 29fc fc69 d2d3 a0bf 04f8 2e2f 5da1 953f
00000540: 9889 df2f 2be8 873f dd10 9604 b511 b3bf
00000550: 6f7d 82d4 bafa c7bf 21ef f0b5 8df5 d1bf
00000560: 3248 45c1 1e95 cfbf cb38 0702 224b c5bf
00000570: 704d 3140 8ffd a9bf 4369 356c 99d7 b03f
00000580: 4a32 2590 89b9 bb3f d728 55b3 d141 afbf
00000590: ee7f 2a5f df5c b0bf 537e 34d2 e25a 8cbf
000005a0: 03c0 70e2 f875 323f f06a 3f5f 14a4 76bf
000005b0: 2929 87f4 8c79 a7bf 58ae 1c3b a2d0 a6bf
000005c0: ba04 a68f 6c39 9fbf 5011 e9ee b492 92bf
000005d0: 346b 1ad1 78f1 953f a463 46c8 169e a03f
000005e0: a7f8 748a dfb9 b6bf d8bd fee5 133b d0bf
000005f0: 2165 e45b ddf7 d9bf 696e e942 2275 debf
00000600: 7e5b 51d3 c514 dabf d568 2dad 0551 d2bf
00000610: 8fbe 1d7c 7b4d c2bf 06de 865b 08f3 5ebf
00000620: cf5e 1c23 fc18 b43f 8a66 d36d 2fac b2bf
00000630: 7fae 439c 8f3d b1bf 1160 5e8e 04b6 92bf
00000640: 20e4 f576 392a 3b3f 4db8 57ca 45a5 87bf
00000650: 3f32 1d17 b867 afbf 6293 1c48 ce8b 82bf
00000660: 60eb 6d3d 6c4e 963f 579e 3d52 9d6d a33f
00000670: 5e2b e058 b116 a23f 797d 6ff2 fe0c afbf
00000680: 7171 d6c4 cf60 d0bf e390 a721 c26e dbbf
00000690: a63b 5813 104c e1bf d822 568c 93d9 e1bf
000006a0: 6645 2c3f f15f ddbf cda6 844d 109b d2bf
000006b0: c7ad d425 935e c1bf 3f8c 0510 5a10 713f
000006c0: b8a7 aae7 c656 843f 7ca3 ff5b ebf4 b5bf
000006d0: 1643 efb4 363b afbf f800 15f7 873b 8fbf
000006e0: 97d1 874e 90e2 4a3f 1053 0db0 fe0e 92bf
000006f0: ec5e e5cc a052 b3bf 665a 7fa4 004b 843f
00000700: fdb2 c688 72d5 b63f 9789 37c8 1735 b43f
00000710: 3184 9ce1 69ed 80bf 24b5 8214 cac1 c4bf
00000720: 0666 7642 6ffe d5bf a6fe bc15 8d46 dfbf
00000730: 2175 58e5 f3cd e1bf 127a 077a c43e e0bf
00000740: 555d 6497 be8d d7bf cd4e 5334 0291 c6bf
00000750: 6f42 f211 554f a6bf 772a 47e4 5c04 873f
00000760: a447 37d7 e67e acbf 2f6e 4f92 0622 b6bf
00000770: df08 c4ba 4627 a7bf 2019 adde 302d 85bf
00000780: 9222 0fe5 a4eb 583f 3022 53cc 4947 95bf
00000790: a924 9524 49e3 b2bf cee6 2eb1 781d 8f3f
000007a0: b75a 313f fcc2 bd3f 14e0 382f c077 bb3f
000007b0: aea5 9ee6 604f 1f3f 974c 415d e3a7 bdbf
000007c0: 8006 26b1 636c d1bf bea0 d776 bc9f d9bf
000007d0: 372e f11a 3faf dbbf b5d3 4067 0bcc d5bf
000007e0: a2a6 8961 e452 c6bf 90c3 0c02 410d a6bf
000007f0: 5c4a 4785 348e 72bf 47fb d5ed fdf9 a2bf
0.0 0.0 -1.3462538351177812e-07 1.0115021097712416e-06 7.915420177290012e-06 -1.0196409205973975e-05 -0.000112719051146556 -0.00031888854681507345
-0.0002228155138337894 -0.0001572709213892442 -2.0636524823791153e-05 3.495676797307893e-05 6.963891543703154e-05 0.00015458005917960618 0.0001945846696206972 4.8150183350661346e-05
1.2876515911177486e-05 5.161384633150857e-08 -1.414898980002823e-07 0.0 -7.568616799339324e-08 2.559288544687432e-07 3.723162062532591e-06 4.130635605351878e-05
3.956674367928812e-05 -0.0008236900392319116 -0.0014222423455152637 -0.002685407062841771 -0.002474950490913364 -0.00032954173112505886 0.00011367846437365213 -0.0003497272162473551
-0.0009218017287810295 -0.001690388178212889 -0.0018912929688116341 -0.0003764251293831732 -3.08875650547258e-05 6.849360833904234e-05 6.9658757877188405e-06 2.1000039158241526e-06
6.551217175912874e-07 -4.767862133262635e-06 2.036207478943582e-06 -0.00019473800084758225 -0.0011491142971701218 -0.005512117264158818 -0.011107281501080167 -0.01723726099225992
-0.01801385472343341 -0.01408468406931428 -0.011571231408112089 -0.010793202865359617 -0.012078516387414974 -0.018648982632558313 -0.0201682390404346 -0.009564374260531517
-0.0027428993778767885 -0.0006065499458925098 0.00016744294642523166 1.8704594497953347e-05 2.6813607373145593e-06 1.9328567732836212e-05 -0.00016974380270630407 -0.0037446892182754353
-0.009269792772806896 -0.02228090134700428 -0.03969580220695617 -0.051275379089080406 -0.0443974798859172 -0.01866355983454739 0.019015730740889084 0.03439719245509782
0.04264134027210605 0.02574227191975577 -0.0025055236186855424 0.0007816170299736304 -0.0008457523656623199 -0.004179882227891276 -0.001685986110316611 -0.0003823105048201394
3.25899840608028e-06 0.00011132430540318868 -0.0009235536231053787 -0.010872835805023627 -0.029384812593779706 -0.05235992435159943 -0.07542797583164168 -0.07052973709487789
-0.02113010009971574 0.040541183114765116 0.10853172758342298 0.150041073878382 0.1735567217224572 0.13516431883204943 0.05914441393032918 0.026408744864482935
0.010720409897788287 -0.015986842652267918 -0.008692970699036073 -0.0019301186238739982 -4.6809986414382534e-05 8.499846655728043e-05 -0.0036941025195655034 -0.027776869943382906
-0.06858973247542326 -0.09831182689247572 -0.11418760555820666 -0.07551281252943796 0.0028987018634361234 0.06748857671855323 0.151944755305506 0.22623531722248275
0.254010271332362 0.24172812220491016 0.1515977071630423 0.07170984807974416 0.010285440691116522 -0.04357082786142095 -0.02485418222845926 -0.004201085092008316
-8.220786069986418e-05 -0.000647820903172991 -0.01192660863312362 -0.05653310882911499 -0.1059030610438744 -0.11757450801024687 -0.12193709029617551 -0.06048497186146688
0.016052689366240998 0.07328546319981241 0.13491058482003404 0.16612937001879194 0.18350076150469416 0.1947277247619602 0.17872792258132789 0.13099943890085225
0.043742126466026904 -0.06921918977898778 -0.04254120159254924 -0.005925461129786444 1.807913086078058e-05 -0.001188635290306918 -0.025209325965060994 -0.0848362460383364
-0.113596940387903 -0.09778817810813513 -0.07469461020215572 -0.023054811955510145 0.02961877975029473 0.05221655381668877 0.031477919238503245 -0.03650051158992938
-0.03279925474069577 0.015391206686450571 0.101120131280201 0.1423890439627634 0.08988025038479151 -0.07183907101425464 -0.05818008170599797 -0.0086299878893087
0.00010709486146949992 -0.0016960728290874357 -0.03784943098207798 -0.08696617997900313 -0.08903819560441413 -0.060357795189332514 -0.03286607307244822 0.021123367314196187
0.011673295401071468 -0.07448893892257354 -0.18733916641665924 -0.28061239974680247 -0.24673828541796322 -0.16635537241967877 -0.050762631021508464 0.06578978435337483
0.10829982537433938 -0.061049035206978956 -0.06391712258709933 -0.01384522632594024 0.0002816898945097181 -0.005527572229733421 -0.04584923253021806 -0.04456049892027342
-0.0304924929309933 -0.018137766916212883 0.02142895485176695 0.03245612330210371 -0.08877370004936101 -0.253605818371367 -0.40575345968098203 -0.47589928182944746
-0.4075178683901227 -0.2861952010331497 -0.14298957405434407 -0.0018889981857749274 0.0785062394828586 -0.07293983870786228 -0.06734559598015187 -0.018272467793934825
0.0004145040793087102 -0.011545701253421603 -0.061338188954867416 -0.00905572087828838 0.021783534287787787 0.037945667542598364 0.035329382037238885 -0.0606460257474692
-0.2559089109652382 -0.4286351517350921 -0.5405350091767687 -0.5578096142717994 -0.45898085755569296 -0.29071433611043745 -0.1356986937256421 0.004165984923335363
0.009931138939766146 -0.08576842304286275 -0.0609986396663144 -0.015250265338750499 0.0008204655287600723 -0.01763532590423994 -0.07547955515235188 0.009908680934967506
0.08919444884550028 0.07893513334378209 -0.008265330503094944 -0.1621639824055957 -0.34365445604780154 -0.4886810982024862 -0.5563907126812958 -0.5076620467551172
-0.3680263975561123 -0.17630031161262708 -0.043574007454599044 0.011238790241710135 -0.055655683299519226 -0.08645669052150916 -0.04522152929168199 -0.010340101047074557
0.0015210256863033328 -0.020779755683891732 -0.07378060477380423 0.015192931086733277 0.11625649016182647 0.10729600098500242 0.00011943844734098902 -0.11584301974044063
-0.2722405652967623 -0.4003745232171346 -0.43257119780603 -0.3405788906414345 -0.174404666543798 -0.04306986951849645 -0.004530148657482327 -0.037063536913584154
