OCR/parameters/thetassciol2.npy (npy, 32208 bytes, 1 tensors)

array f8 [10, 401]
0	0xc013d16e335f75ae	-4.954521944714925
1	0x0000000000000000	0.0
2	0x0000000000000000	0.0
3	0xbe33f296a59d62be	-4.6444151526712765e-09
4	0xbed86a10cdba1280	-5.8208272225619565e-06
5	0x3f10f88251b95b6e	6.47382298038909e-05
6	0x3f446ed0959c867e	0.0006235617140399467
7	0x3f2c9f28246692ee	0.0002183662893006292
8	0x3f14d7f90b95bcd2	7.951219131084882e-05
9	0xbf223cd2820cc6bb	-0.00013914174726319624
10	0xbf4cc121afe44a09	-0.0008775152671510199
11	0xbf277165c0df7085	-0.0001788555823044638
12	0x3f2a5abd087ee781	0.00020106847318662402
13	0x3f36be8cbe785a7d	0.0003470510114040105
14	0x3f60ed912d463ad9	0.002066405819454925
15	0x3f5daa440507b95b	0.0018106140379319988
16	0x3ef03751d23cef73	1.546487068469723e-05
17	0x3ee49ede07d3e42a	9.832656582707962e-06
18	0x3e94103011146edf	2.9896547555791454e-07
19	0xbe89befc2a4bfd41	-1.9182291057654814e-07
20	0x0000000000000000	0.0
21	0xbe39c4fb28650e88	-5.999919344617424e-09
22	0xbede5e251a1debb9	-7.2402366714197526e-06
23	0xbeb5b7705a6b0a4e	-1.2944077327081728e-06
24	0x3f4b420d6738dba9	0.0008318486638419959
25	0x3f5541b21d8499b1	0.001297401371695633
26	0xbf7605e12b07e28c	-0.0053767009380797474
27	0x3f448345c24ee887	0.0006260004635045981
28	0x3f64d911f530883b	0.002544913362286597
29	0x3f4c98ce5ff060ac	0.0008727081002488832
30	0x3f81b505e1e72c1e	0.008646055180085151
31	0x3f75627009fb369f	0.005220830585768304
32	0x3f689eaa17d1fab2	0.003005344593986458
33	0x3f43acadf843293e	0.000600418993167019
34	0xbf90b11972bb737a	-0.016300580623340256
35	0xbf91f01ca898ad3f	-0.017517516889865133
36	0xbf53e2d4c92b5fdd	-0.0012137487398629
37	0x3f614cd7cf3f4bc5	0.002111836913152728
38	0x3f5b36de33773d36	0.0016610307628644578
39	0xbf111313dec9bbdb	-6.513413217999703e-05
40	0x3eb0794aa6aa5593	9.81914719010633e-07
41	0x3e6d177f46489236	5.418767371295552e-08
42	0x3f0681e131a8afe0	4.292934882629807e-05
43	0xbf1445a2db7c3e43	-7.733160498112853e-05
44	0xbf6d1eb8dad2a27a	-0.0035546884960989096
45	0xbf8c511070d7c13e	-0.013826492732704861
46	0xbf9d4cf2e13fa756	-0.028613848684393282
47	0xbfa36e70dfee1b7a	-0.03795197232744037
48	0xbfaf371baa37d54f	-0.060967316177917945
49	0xbfb79026922b8174	-0.09204331463434362
50	0xbfbcbaba3aab7b1e	-0.11222423488969155
51	0xbfc3d27341b96459	-0.15485993107975807
52	0xbfc70af05eb2ca63	-0.18002133010812135
53	0xbfc34dda3093283f	-0.15081336376016627
54	0xbfcfc4d03947acf9	-0.24819376751779723
55	0xbfc83642f5cc1502	-0.18915593149009885
56	0xbf94e786b00e4923	-0.02041445207175586
57	0xbf92b549ae9cc533	-0.018269683153623716
58	0xbf99798434da5c90	-0.024877610898866254
59	0x3f6e4a00efed564e	0.003697397070406428
60	0x3f49e2d684aa6908	0.0007899806453963995
61	0x3e88ba041be85b24	1.8422771393195734e-07
62	0x3f3b57826a2eb71b	0.0004172032733390383
63	0x3f4b68a4951b9dfe	0.0008364490151650526
64	0xbfa9442dd360b10e	-0.04934828954023561
65	0xbfbfd4ce5da68c02	-0.12434091364279712
66	0xbfc04e2aa740085a	-0.12738545576582078
67	0xbfc783b837d21de5	-0.18370726323722333
68	0xbfc7956cea34a20b	-0.18424760280437655
69	0xbfc15f001bed7bb3	-0.13571168292670918
70	0x3f9d1878f2db21f1	0.028413667509797184
71	0x3fcb16f027131d8d	0.21163751514380316
72	0x3fb423ddc1fd1b72	0.07867227541019675
73	0x3f863dee55981636	0.010860311495899482
74	0xbfc25a465cab4c7a	-0.14337996983394757
75	0xbfc3ab8b8637ebab	-0.153672638450954
76	0x3fc410d34a80807d	0.15676346910277408
77	0x3fb74755dce2b08a	0.09093224184715801
78	0x3f915c3bfc976307	0.016953408519699866
79	0xbf9779b74044c7d0	-0.022925246522568277
80	0xbf7ad58e88691d1a	-0.006551319855652405
81	0xbee326b00cc180d7	-9.13196745261394e-06
82	0x3f40fc055d16602e	0.0005183244885982369
83	0x3f6ce0323425083f	0.0035248737850972762
84	0xbfb41c7fe7c54aaa	-0.07855986984695087
85	0xbfcbc535107eddc6	-0.21695578866432025
86	0xbfc3125cd2d0e06a	-0.14899788182970336
87	0xbfc6cdd958ab873b	-0.17815701322165886
88	0xbfc36c0637d75e3e	-0.15173413969636046
89	0x3fccc95461fde101	0.2248940924143952
90	0x3fdedb74a308b53f	0.48214450761118494
91	0x3fe7d157449d977a	0.7443043079517644
92	0x3fdf73e5d1bb4a4d	0.49144883615114027
93	0x3fe0785c1f3efc4f	0.5146923647188347
94	0x3fd6a884443bfd70	0.3540354410506188
95	0xbfbb77ee48fb7bcd	-0.10729874879642338
96	0x3fd162b16b08c1e4	0.27164874508437564
97	0x3fd9754834684fa2	0.39778332822720064
98	0x3f9a37c44584aa28	0.025603358023696426
99	0xbfb40123309ddb64	-0.07814235627107063
100	0xbf96b6d87e54d5ef	-0.022181875906616296
101	0xbf0b2ba936564b52	-5.182371277636398e-05
102	0x3f5afd59aaf82e3f	0.0016473174727050924
103	0xbf82ed189b0c7212	-0.009241287452419509
104	0xbfc08761a5a48317	-0.12913151348131954
105	0xbfd32772a885a35f	-0.29928270776013294
106	0xbfd414e86d765a9c	-0.31377611818008133
107	0xbfe057afbcb0d43d	-0.5107039151540743
108	0xbfcb2382e0f68e7b	-0.21202121719862874
109	0x3fc9ea5705069180	0.20246398682969513
110	0x3fc0635f963c70b8	0.1280326350760157
111	0x3fde62b19ce1eda1	0.47477379150924476
112	0x3fea0c75959aa358	0.814020912356777
113	0x3fdcce6368c21f3b	0.4500969431905905
114	0x3fe8615a68c42336	0.7618839307989222
115	0x3fc323bd70a7ab55	0.1495281982491529
116	0xbfc0a8fb3224be26	-0.13015689800657632
117	0xbfd983a9fc83fe6e	-0.39866113338209785
118	0xbfce54c5edc037e3	-0.23696207150390966
119	0xbfc146c2e2355c1a	-0.13497196240743464
120	0xbf98733cd34ce810	-0.02387709655452147
121	0x3f5a964796843724	0.0016227435208437469
122	0xbf89a6f85ce8292a	-0.012525501570980941
123	0xbfc2888972f858d5	-0.14479177583479577
124	0xbfd5a78a533cb1d2	-0.3383508503782454
125	0xbfddd439325ea46c	-0.4660780898944441
126	0xbfd452f9e1d8b238	-0.31756445937461164
127	0xbfdc3b5475922926	-0.4411212108758654
128	0x3fae2b74c06023d0	0.058925293429701875
129	0xbfa123e39270265c	-0.03347693598341259
130	0x3f93919311438692	0.019110010079094915
131	0x3fc3ebfce447e182	0.15563927790186588
132	0x3fddcb4689852d18	0.46553195409497183
133	0x3fcf4d23a0d2de87	0.24454160073013417
134	0x3fcb2ad941951076	0.21224513723621258
135	0x3fc345f9d8a36b39	0.15057299688381834
136	0x3fbad20efc7168fa	0.10476773894461991
137	0x3fafb35304a21ac1	0.06191501075322981
138	0xbfd6a28096b5a171	-0.3536683532497796
139	0xbfd0814499994a55	-0.2578898906696499
140	0xbf99ea370d21bc6a	-0.02530752198839218
141	0x3f6192ed5c37bdfc	0.002145255655470411
142	0xbf9238649c3615fc	-0.017793247255687192
143	0xbfd4a38861b0b6a4	-0.3224812463766773
144	0xbfdb5c0b236096fb	-0.42749288992705176
145	0xbfbf875436d4d977	-0.12315870608003886
146	0x3fc3c0812fc72af9	0.15431227524671678
147	0xbfb9f0b16e4803ab	-0.1013289350739927
148	0xbfb879e916fe4062	-0.09561020671230971
149	0x3f9ec44f9034722a	0.030045741249624815
150	0x3fdb2d228c5a201c	0.4246298189759743
151	0x3fe5f29d90190f06	0.6858661474620653
152	0x3fcaf0b9f146a1a7	0.210471384821415
153	0x3fe26ef5c8a1794a	0.576044933182666
154	0x3fcc60f9316b6385	0.22170939362584022
155	0x3feb5bcb4e1d4d7b	0.8549553418801418
156	0x3fdf02b50b9cceaf	0.48454023489032755
157	0x3fe6cf8b68531994	0.7128350293722172
158	0xbfc2505ed504b256	-0.14307771111761508
159	0xbfe0ae01fe24615e	-0.5212411845887279
160	0xbfb371f54f40d813	-0.07595761475462863
161	0x3f49ae93b418cce4	0.0007837506493103799
162	0xbf81216cd3ec1c2f	-0.008364534585338116
163	0xbfdc7698f4e09bad	-0.4447386161213512
164	0xbfcf5cbb4690df18	-0.24501744218445576
165	0xbfb58e00afac166d	-0.0841980389487504
166	0xbfb948cb3d839cc6	-0.09876699687775944
167	0xbfcd71843e005142	-0.2300267508259229
168	0xbf9d59710447cbb5	-0.028661504637010633
169	0x3fc1400ba51bef59	0.13476701318711085
170	0xbfa111642ed46e5f	-0.03333581039097732
171	0x3fd6c0e712784980	0.35552384189318076
172	0x3fc19eed6892c8ab	0.1376625786411457
173	0x3fd2cacbe860f21d	0.29362771695358153
174	0x3fd3488c9c8a741f	0.3013030556410871
175	0x3fe724930bbe036a	0.7232146481838815
176	0x3fd3ed163af9d103	0.3113456321655265
177	0x3feba63f89690851	0.8640439685625642
178	0xbf8962c87f108add	-0.012395445230202135
179	0xbfdda0479152bb24	-0.4629076880618632
180	0xbfbc8950d12d4fe2	-0.11147027117596012
181	0x3f38f756364fb42b	0.0003809533575907543
182	0xbfa43b75c7c1d31e	-0.03951614440385341
183	0xbfcfef6586a49a33	-0.24949330400814204
184	0x3fd062230f831d04	0.25598980440959473
185	0x3fbb2b24232efb98	0.10612703188870254
186	0x3fc84efec370e9f3	0.18991074126263605
187	0x3fd308a79ca7f98d	0.2974032430501204
188	0x3fc9ec50963c86e2	0.20252425513995492
189	0xbfd404f26426c8b9	-0.3128019311944957
190	0xbfe1108cc9f2def7	-0.5332702583609422
191	0xbfcd8d86f9d3f1cd	-0.2308815688956102
192	0xbff25df0291ff83e	-1.14793411316306
193	0xbff409e91cc6b4ef	-1.2524195789404151
194	0xbfe50eea0a1e0b3c	-0.658070583115069
195	0xbfb334edaaf786ec	-0.07502637313839572
196	0xbfd056b9ceed882d	-0.2552933235912203
197	0x3feddd3df0a82021	0.9332570743872602
198	0xbfa905f0df90f2cd	-0.048873450556560984
199	0xbfd56619bd13a740	-0.3343567224934425
200	0xbfbb0da37bdc1658	-0.10567685865324827
201	0xbf621ca807d1b146	-0.00221093004670628
202	0xbfa7f3785e5ce0ae	-0.04677940513505639
203	0xbfaa1eaed8d7da87	-0.05101534268390134
204	0x3fd7484cfb1e88d1	0.3637878849350616
205	0xbf93b9e4c7d0a9ae	-0.019263815589661774
206	0x3fcb3eb81a0f5d25	0.2128515364881675
207	0x3fd9b60ddfaba3ae	0.40173670618838286
208	0xbfb6bc5b3e793be5	-0.08881159091218611
209	0xbfe430f6172ed4a7	-0.6309767201224944
210	0xbff1d612053a8b8e	-1.1147632793660907
211	0xbff90ba73b7e6a90	-1.5653450321175661
212	0xbffcb441c5834b10	-1.794008037123323
213	0xbff0b57ba8359c47	-1.044307381694823
214	0xbfe4d53a08d19bf2	-0.6510286495439443
215	0xbfea46913f89ea8f	-0.8211141816130566
216	0x3fc014b5b80455ed	0.12563201413347205
217	0x3fdd3ad4d8b85dba	0.4567157856376657
218	0xbfbc66b6013eaf10	-0.11094224481956538
219	0xbfda7fa4e9933f7a	-0.4140407830245675
220	0xbfa91f024ce5afe5	-0.04906470478712758
221	0xbf61e0ad75daed37	-0.0021823299310576266
222	0xbfbe55e9dbc93557	-0.11849843612545406
223	0xbfd37a101ca49c94	-0.30432513043565135
224	0x3fcd60b1b3ad7405	0.22951337121313045
225	0x3fd816d9a98664f6	0.37639466815160405
226	0x3fd5bb0d5959beb6	0.33954175687447774
227	0xbf9717c306810330	-0.022551581642122176
228	0xbfd27d559231e6ac	-0.28889979626510853
229	0xbfe889828633579a	-0.76678587161108
230	0xbff538f122e74f07	-1.3264018405361087
231	0xbff4699b6a0da5ca	-1.2757829802234135
232	0xbfe66e081006429d	-0.700931578920137
233	0xbfe452d9a80e4569	-0.6351135523165513
234	0xbfd3097a521de5a9	-0.29745347995011656
235	0xbfd6f8c249580c0e	-0.3589330402612071
236	0x3fb821dd38a7460d	0.09426672585620839
237	0xbfcde55e7743f11b	-0.2335622866011214
238	0xbfc18d5089d698a4	-0.13712507944473373
239	0xbfcf2a58f77f2bf9	-0.24347984394839253
240	0xbf689eae4d1f0db3	-0.00300535243238339
241	0x3f90fa9742018258	0.016580928233795283
242	0xbfccb0e7c0d87380	-0.22414872089657578
243	0xbfd0cc91e572e1d8	-0.26248595625977833
244	0xbf8b5522dde742a2	-0.01334597816176714
245	0x3fce18f2e1e44464	0.23513637571207646
246	0x3fe31d99e938ef8d	0.5973634295582869
247	0x3fc480c9345aadda	0.16018023544653098
248	0x3fdecfbfafe07bf1	0.4814299790904775
249	0x3fb1a6c72ec344c4	0.06895108119649068
250	0xbfd37e879b42d3b6	-0.30459776079379297
251	0xbfc7658244717188	-0.18278530446958663
252	0xbfd6fcf0ab18e80b	-0.35918823918075365
253	0xbfc1e4752686eee8	-0.13978447323994847
254	0xbfc15e5e8b5dbeef	-0.1356924229144094
255	0xbfd057499b514bbe	-0.2553276078007761
